…
     "# use Matplotlib (don't ask)\n",
     "import matplotlib.pyplot as plt\n",
@@ -375,22 +487,89 @@
   },
   {
    "cell_type": "code",
-   "execution_count": null,
+   "execution_count": 7,
    "metadata": {},
-   "outputs": [],
+   "outputs": [
+    {
+     "name": "stdout",
+     "output_type": "stream",
+     "text": [
+      "Model: \"model_1\"\n",
+      "_________________________________________________________________\n",
+      "Layer (type)                 Output Shape              Param #   \n",
+      "=================================================================\n",
+      "input_3 (InputLayer)         (None, 28, 28, 1)         0         \n",
+      "_________________________________________________________________\n",
+      "conv2d_1 (Conv2D)            (None, 28, 28, 16)        160       \n",
+      "_________________________________________________________________\n",
+      "max_pooling2d_1 (MaxPooling2 (None, 14, 14, 16)        0         \n",
+      "_________________________________________________________________\n",
+      "conv2d_2 (Conv2D)            (None, 14, 14, 8)         1160      \n",
+      "_________________________________________________________________\n",
+      "max_pooling2d_2 (MaxPooling2 (None, 7, 7, 8)           0         \n",
+      "_________________________________________________________________\n",
+      "conv2d_3 (Conv2D)            (None, 7, 7, 8)           584       \n",
+      "_________________________________________________________________\n",
+      "max_pooling2d_3 (MaxPooling2 (None, 4, 4, 8)           0         \n",
+      "_________________________________________________________________\n",
+      "conv2d_4 (Conv2D)            (None, 4, 4, 8)           584       \n",
+      "_________________________________________________________________\n",
+      "up_sampling2d_1 (UpSampling2 (None, 8, 8, 8)           0         \n",
+      "_________________________________________________________________\n",
+      "conv2d_5 (Conv2D)            (None, 8, 8, 8)           584       \n",
+      "_________________________________________________________________\n",
+      "up_sampling2d_2 (UpSampling2 (None, 16, 16, 8)         0         \n",
+      "_________________________________________________________________\n",
+      "conv2d_6 (Conv2D)            (None, 14, 14, 16)        1168      \n",
+      "_________________________________________________________________\n",
+      "up_sampling2d_3 (UpSampling2 (None, 28, 28, 16)        0         \n",
+      "_________________________________________________________________\n",
+      "conv2d_7 (Conv2D)            (None, 28, 28, 1)         145       \n",
+      "=================================================================\n",
+      "Total params: 4,385\n",
+      "Trainable params: 4,385\n",
+      "Non-trainable params: 0\n",
+      "_________________________________________________________________\n"
+     ]
+    },
+    {
+     "name": "stderr",
+     "output_type": "stream",
+     "text": [
+      "Using TensorFlow backend.\n"
…
